…
 = 64, kernel_size = c(3, 3), activation = &quot;relu&quot;) Como se puede observar, en esta parte de la red se reduce la dimensión de la información de manera paulatina en cada capa, obteniendo las características representativas del objeto contenido en cada imagen hasta llegar a un tamaño de \\(4\\times 4\\times 64\\). summary(model, line_length = 64) #&gt; Model: &quot;sequential_2&quot; #&gt; ________________________________________________________________ #&gt; Layer (type) Output Shape Param # #&gt; ================================================================ #&gt; conv2d_2 (Conv2D) (None, 30, 30, 32) 896 #&gt; max_pooling2d_1 (MaxPoolin (None, 15, 15, 32) 0 #&gt; g2D) #&gt; conv2d_1 (Conv2D) (None, 13, 13, 64) 18496 #&gt; max_pooling2d (MaxPooling2 (None, 6, 6, 64) 0 #&gt; D) #&gt; conv2d (Conv2D) (None, 4, 4, 64) 36928 #&gt; ================================================================ #&gt; Total params: 56,320 #&gt; Trainable params: 56,320 #&gt; Non-trainable params: 0 #&gt; ________________________________________________________________ Ahora, será necesario añadir capas que permitan transformar los resultados de la parte convolucional de la red implementada a un valor de probabilidad de que la imagen r
…
probabilidad de que la imagen represente cada una de las 10 posibles clases: model |&gt; layer_flatten() |&gt; layer_dense(units = 64, activation = &quot;relu&quot;) |&gt; layer_dense(units = 10, activation = &quot;softmax&quot;) A continuación, se puede observar como quedaría la estructura final del modelo implementado: summary(model, line_length = 64) #&gt; Model: &quot;sequential_2&quot; #&gt; ________________________________________________________________ #&gt; Layer (type) Output Shape Param # #&gt; ================================================================ #&gt; conv2d_2 (Conv2D) (None, 30, 30, 32) 896 #&gt; max_pooling2d_1 (MaxPoolin (None, 15, 15, 32) 0 #&gt; g2D) #&gt; conv2d_1 (Conv2D) (None, 13, 13, 64) 18496 #&gt; max_pooling2d (MaxPooling2 (None, 6, 6, 64) 0 #&gt; D) #&gt; conv2d (Conv2D) (None, 4, 4, 64) 36928 #&gt; flatten_1 (Flatten) (None, 1024) 0 #&gt; dense_7 (Dense) (None, 64) 65600 #&gt; dense_6 (Dense) (None, 10) 650 #&gt; ================================================================ #&gt; Total params: 122,570 #&gt; Trainable params: 122,570 #&gt; Non-trainable params: 0 #&gt; ________________________________________________________________ NOTA Un detalle a tener en cuenta con respecto al ejemplo del capítulo 36 es el parámetro Total params. Este valor indica el número de parámetros que contiene nuestra 
…
