…
32,32,3)) |> \n  layer_max_pooling_2d(pool_size = c(2,2)) |> \n  layer_conv_2d(filters = 64, kernel_size = c(3,3), activation = \"relu\") |> \n  layer_max_pooling_2d(pool_size = c(2,2)) |> \n  layer_conv_2d(filters = 64, kernel_size = c(3,3), activation = \"relu\")\nsummary(model, line_length=74)\n#> Model: \"sequential_2\"\n#> __________________________________________________________________________\n#>  Layer (type)                    Output Shape                 Param #     \n#> ==========================================================================\n#>  conv2d_2 (Conv2D)               (None, 30, 30, 32)           896         \n#>  max_pooling2d_1 (MaxPooling2D)  (None, 15, 15, 32)           0           \n#>  conv2d_1 (Conv2D)               (None, 13, 13, 64)           18496       \n#>  max_pooling2d (MaxPooling2D)    (None, 6, 6, 64)             0           \n#>  conv2d (Conv2D)                 (None, 4, 4, 64)             36928       \n#> ==========================================================================\n#> Total params: 56,320\n#> Trainable params: 56,320\n#> Non-trainable params: 0\n#> __________________________________________________________________________\nmodel |> \n  layer_flatten() |> \n  layer_dense(units = 64, activation = \"relu\") |> \n  layer_dense(units = 10, activation = \"softmax\")\nsummary(model, line_length=74)\n#> Model: \"sequential_2\"\n#> __________________________________________________________________________\n#>  Layer (type)                    Output Shape                 Param #     \n#> ==========================================================================\n#>  conv2d_2 (Conv2D)               (None, 30, 30, 32)           896         \n#>  max_pooling2d_1 (MaxPooling2D)  (None, 15, 15, 32)           0           \n#>  conv2d_1 (Conv2D)               (None, 13, 13, 64)           18496       \n#>  max_pooling2d (MaxPooling2D)    (None, 6, 6, 64)             0           \n#>  conv2d (Conv2D)                 (None, 4, 4, 64)             36928       \n#>  flatten_1 (Flatten)             (None, 1024)                 0           \n#>  dense_7 (Dense)                 (None, 64)                   65600       \n#>  dense_6 (Dense)                 (None, 10)                   650         \n#> ==========================================================================\n#> Total params: 122,570\n#> Trainable params: 122,570\n#> Non-trainable params: 0\n#> __________________________________________________________________________\nmodel |> compile(\n  optimizer = \"sgd\", # stochastic gradient descent\n  loss = \"sparse_categorical_crossentropy\", # función utilizada para pro
…
